backend/models/india_lstm.pt (torch, 74489 bytes, 6 tensors)

lstm.weight_ih_l0 f4 [256, 3]
0	0xbd513531	-0.051076118
1	0xbd3c6c14	-0.04600151
2	0xbd321b8c	-0.043483302
3	0xbc2e0c9b	-0.010623123
4	0x3c059778	0.008153789
5	0xbc276485	-0.010216837
6	0x3bb059e7	0.005381811
7	0x3d8d64a0	0.06903958
8	0x3d84acef	0.06478297
9	0x3d2c76d7	0.042105522
10	0x3d17235f	0.036898967
11	0x3d9844ed	0.074350215
12	0xbc90da5c	-0.017682247
13	0xbd3fee17	-0.04685792
14	0xbcdded08	-0.027090564
15	0x3be1db38	0.006892588
16	0x3c8e8a65	0.017399976
17	0xbdf3c4f6	-0.11902802
18	0xbc6ece3c	-0.014575537
19	0x3c338658	0.010957323
20	0xbd87a126	-0.066225335
21	0x3dd5a0d7	0.104310684
22	0xbbb9597a	-0.0056564184
23	0x3d67ad35	0.056561667
24	0x3cfd8457	0.030946894
25	0x3dc52e92	0.09628023
26	0xbe026eda	-0.12737599
27	0xbde49689	-0.11161525
28	0x3dd12f29	0.10214073
29	0xbe02bef2	-0.12768152
30	0xbddcc961	-0.107805975
31	0x3dadd8d9	0.08488626
32	0xbdfcc977	-0.12343114
33	0xbde199a3	-0.11015632
34	0x3dba8ff2	0.09109487
35	0x3d9fc243	0.07800724
36	0xbd87d692	-0.06632723
37	0xbd09c1b4	-0.033631995
38	0x3dc1223b	0.09430357
39	0x3cf493d7	0.029855652
40	0x3b60e81b	0.0034318033
41	0xbdb406e5	-0.087903775
42	0x3def432f	0.11682736
43	0xbdb5c18e	-0.08874808
44	0x3c8a6528	0.016893938
45	0xbd59a9d8	-0.05314049
46	0x3df200b1	0.11816538
47	0x3ce387cf	0.02777472
48	0x3dc2a28f	0.09503662
49	0xbdc0c2fb	-0.094121896
50	0xbc040350	-0.00805743
51	0x3d8049f0	0.062641025
52	0xbc09a377	-0.008400789
53	0x3cec30c9	0.028831856
54	0xbcc378f2	-0.023861382
55	0x3d90eb94	0.07076183
56	0xbd222524	-0.0395862
57	0xbd1633f0	-0.036670625
58	0xbe006fe8	-0.12542689
59	0x3ddae5dc	0.106883734
60	0x3cf734c0	0.03017652
61	0x3cdf9dc1	0.027296903
62	0x3df76bf1	0.12081135
63	0xbd9e09ce	-0.07716714
64	0x3df088fe	0.11744879
65	0xbcab472a	-0.020907957
66	0xbdac5e09	-0.08416373
67	0x3d30898e	0.043099932
68	0xbd129ee7	-0.035796072
69	0x3d88919d	0.066683985
70	0xbd9771ad	-0.07394729
71	0x3db796df	0.08964323
72	0xbda133f5	-0.07871238
73	0xbd82c479	-0.063851304
74	0xbd2c959a	-0.04213486
75	0xbd229f34	-0.03970261
76	0x3debaa7c	0.11507127
77	0x3d6943ff	0.05694961
78	0xbdeb404c	-0.11486873
79	0x3dd4b473	0.103859805
80	0xbd687847	-0.05675533
81	0xbd39d7a4	-0.045371667
82	0xbca09c0a	-0.019605655
83	0xbd9d4def	-0.0768088
84	0x3dc70b30	0.09718931
85	0xbcd6305e	-0.02614611
86	0x3d267bf0	0.04064554
87	0x3dcd0c41	0.10012103
88	0xbd918b86	-0.0710669
89	0x3d44463b	0.04791854
90	0x3d433b73	0.047664117
91	0x3bd70f2e	0.006563089
92	0xbd9ef6c7	-0.07761913
93	0xbaaf3fed	-0.0013370492
94	0xbd77cad6	-0.060496174
95	0xbdd3129c	-0.10306284
96	0x3d516d00	0.05112934
97	0x3dbbeb23	0.09175708
98	0x3d0d8bca	0.03455714
99	0x3da31904	0.07963756
100	0xbd65dd9f	-0.056119557
101	0x3c5a4604	0.013322357
102	0xbde28ed2	-0.11062397
103	0x3d4e9429	0.050434265
104	0xbdd20fa3	-0.10256889
105	0x3d04d694	0.0324312
106	0x3cbb89a7	0.022892786
107	0xbdcc4857	-0.09974735
108	0xbdd96348	-0.106146395
109	0x3d0f9950	0.03505832
110	0xbd70721b	-0.05870257
111	0xbda658e6	-0.08122425
112	0xbd12ee62	-0.03587187
113	0x3d23b114	0.039963797
114	0xbd6a66d7	-0.057226982
115	0x3de4ff61	0.11181522
116	0x3cff6815	0.03117756
117	0xbd821453	-0.06351533
118	0x3d4dff7a	0.05029247
119	0xbc273f20	-0.010207921
120	0x3d6985c1	0.057012323
121	0xbd251b72	-0.040309377
122	0x3d3e76a6	0.04649987
123	0xbc0c07c4	-0.008546773
124	0xbd90e0ca	-0.07074125
125	0x3dd0191a	0.10161038
126	0x3d756fe5	0.059921164
127	0x3dda53c0	0.10660505
128	0x3dafe29f	0.085881464
129	0xbde43193	-0.11142268
130	0x3ddd87df	0.10816931
131	0x3d1a6f5f	0.037703868
132	0x3daab6c3	0.0833564
133	0xbdb36a7d	-0.087605454
134	0xbdb9abb0	-0.0906595
135	0xbd33c7c8	-0.043891698
136	0xbdb8a670	-0.090161204
137	0xbc4e7d14	-0.012603063
138	0x3cc44eb4	0.02396331
139	0xbd3cedeb	-0.046125334
140	0x3de55e4f	0.111996286
141	0xbdcba382	-0.09943296
142	0xbd8fac2d	-0.07015262
143	0xbdd092a5	-0.1018422
144	0x3da09302	0.078405395
145	0x3d8e9c91	0.069634564
146	0xbd32138a	-0.043475665
147	0xbd012f26	-0.031539105
148	0x3dd38dd7	0.10329788
149	0xbc1eb989	-0.00968779
150	0xbd6163f2	-0.055026956
151	0xbd4e6b29	-0.050395165
152	0x3ceb181a	0.028698016
153	0x3dfd74dd	0.123758055
154	0xbd07e5e6	-0.033178233
155	0xbdbacaa1	-0.0912068
156	0xbd8bdf81	-0.06829739
157	0x3d8fece8	0.07027608
158	0x3cd87adf	0.026425777
159	0x3df06c96	0.11739461
160	0xbd931af4	-0.07182875
161	0xbd675e9c	-0.05648671
162	0xbd90be60	-0.07067561
163	0xbdde0948	-0.10841614
164	0x3d957583	0.07297804
165	0xbc0ecea5	-0.00871626
166	0xbe041cc4	-0.12901598
167	0x3daa2869	0.08308489
168	0xbd4f5a0d	-0.05062299
169	0x3dd3d4b5	0.10343305
170	0xbda22c4d	-0.07918606
171	0x3da4bcbf	0.08043813
172	0xbca105bc	-0.019656055
173	0x3d65212c	0.05593984
174	0xbd80a36a	-0.06281169
175	0x3da2a595	0.079417385
176	0x3deb307e	0.114838585
177	0x3dfbf3d4	0.12302366
178	0x3def7338	0.11691898
179	0xbd8976fa	-0.06712146
180	0xbcde23a2	-0.0271166
181	0x3c351c94	0.011054177
182	0x3d7ed4be	0.062214606
183	0xbd224a0d	-0.0396214
184	0x3c8713ef	0.016488997
185	0xbde4cdf1	-0.11172093
186	0xbdce19e9	-0.10063536
187	0x3c459654	0.012059767
188	0x3dde71f4	0.108615786
189	0x3d439c6d	0.0477566
190	0x3d56d510	0.052449286
191	0xbd79e25e	-0.061006896
192	0x3bf5cfec	0.007501593
193	0x3dc4e66e	0.096142635
194	0xbdbe0ab9	-0.09279389
195	0x3d864f80	0.06558132
196	0x3ddb7ada	0.107167915
197	0xbc344f35	-0.011005213
198	0xbda6d5e9	-0.08146269
199	0x3d9f44e1	0.077768095
200	0xbdd70eec	-0.10500893
201	0x3dc5d55f	0.09659838
202	0x3d445c94	0.047939852
203	0x3d9a2a62	0.07527615
204	0xbd87acc2	-0.06624748
205	0xbdb43bf8	-0.08800501
206	0xbda147aa	-0.07874997
207	0xbdcdf59e	-0.100566134
208	0xbdeabdb6	-0.11461966
209	0x3dee0f6c	0.11624035
210	0x3d881810	0.066452146
211	0xba8d26a9	-0.0010768968
212	0x3dc66b3d	0.09688423
213	0xbdf3622d	-0.1188396
214	0x3d2119ea	0.039331354
215	0x3e01ccc2	0.12675765
216	0xbd62875e	-0.055304877
217	0x3df07c35	0.117424406
218	0xbd34033c	-0.043948397
219	0x3cf6ad0e	0.030111816
220	0xbdf9ab12	-0.12190832
221	0xbc3f77cc	-0.011686277
222	0xbdd2e83b	-0.10298201
223	0x3d658ea2	0.05604423
224	0xbdedb58c	-0.11606893
225	0x3da3a567	0.07990532
226	0x3d3a3dce	0.045469098
227	0xbd01095f	-0.031503078
228	0xbc20dce2	-0.009818288
229	0xbc8b424d	-0.016999388
230	0xbda4e0b0	-0.08050668
231	0x3d1045c2	0.035222776
232	0x3d79f6d0	0.061026394
233	0x3cd29c79	0.025709378
234	0x3df4ae93	0.1194736
235	0xbd451319	-0.048113916
236	0xbde8a821	-0.11360193
237	0xbcf549d6	-0.029942434
238	0x3c739fb9	0.014869624
239	0x3c493db2	0.012282776
240	0x3b96f756	0.0046071215
241	0xbdf538f4	-0.119737536
242	0xbd3619a6	-0.044458054
243	0x3db5c365	0.08875159
244	0xbd75f41a	-0.060047247
245	0x3d77e383	0.060519706
246	0x3c2bf9a2	0.010496529
247	0xbd2c9bd2	-0.04214079
248	0x3ced2dae	0.028952446
249	0xbde95759	-0.11393613
250	0xbd25283e	-0.04032158
251	0xbe024d44	-0.12724787
252	0x3dc0ac58	0.09407872
253	0x3dbb1d26	0.09136419
254	0xbb3796d8	-0.0028013494
255	0xbd8c8f9b	-0.06863328

lstm.weight_hh_l0 f4 [256, 64]
0	0x3d63f46a	0.055653013
1	0xbd513ed6	-0.051085316
2	0xbcf361f6	-0.029709797
3	0xbc69a9f3	-0.01426171
4	0x3dc6e402	0.09711458
5	0x3d251b6f	0.040309366
6	0xbdec0c5a	-0.115257934
7	0xbd278648	-0.040899545
8	0x3d9946f1	0.07484234
9	0xbdbf5e3d	-0.093441464
10	0x3c1526ca	0.009103486
11	0xbdd3352c	-0.10312876
12	0xbcd11241	-0.0255214
13	0x3dc80675	0.097668566
14	0x3cac5def	0.021040885
15	0x3ddd3e6b	0.10802921
16	0xbb854c80	-0.0040679574
17	0xbe01e6b2	-0.1268566
18	0xbd7edf11	-0.06222445
19	0x3de6fe0b	0.112789236
20	0xbd428be1	-0.04749668
21	0x3d88716c	0.066622585
22	0x3d86559e	0.06559299
23	0x3db0dfd6	0.08636443
24	0x3dda9426	0.10672788
25	0xbc2c4eed	-0.010516864
26	0xbc84ada1	-0.016196074
27	0xbcb9d743	-0.022685653
28	0xbde61100	-0.11233711
29	0xbdc3aa32	-0.095539466
30	0x3ded7d4c	0.11596164
31	0xbdcf0d73	-0.10109987
32	0x3d8a6682	0.06757833
33	0x3d89f54d	0.067362405
34	0xbd8118b9	-0.063035436
35	0x3c53b9a2	0.012922676
36	0x3cb61472	0.022226546
37	0x3dc1c9d8	0.09462327
38	0x3ce44b73	0.027868008
39	0x3ddf5f45	0.10906843
40	0x3cb5acae	0.022177067
41	0xbdbd555f	-0.09244799
42	0xbd948a5b	-0.07252952
43	0x3b9d34be	0.004797547
44	0x3d2b942f	0.041889366
45	0x3df81242	0.121128574
46	0xbda669ce	-0.081256494
47	0xbe00eeb1	-0.12591054
48	0xbdd4cbbf	-0.10390424
49	0x3c944f46	0.018104207
50	0x3db5d751	0.08878959
51	0x3d688e51	0.05677635
52	0xbb1f2e3c	-0.0024289032
53	0x3c95b659	0.018275427
54	0xbd9abe16	-0.07555787
55	0xbde74683	-0.11292746
56	0xbd4e120f	-0.05031019
57	0x3d72349b	0.0591322
58	0x3a36d884	0.00069750124
59	0xbde7c8cd	-0.113175966
60	0x3d80bdd4	0.06286207
61	0x3d4f224e	0.050569825
62	0x3c5a7b68	0.013335086
63	0xbd8508d2	-0.06495823
64	0x3df62a9b	0.12019845
65	0xbd0dbc4b	-0.0346034
66	0xbc375fe4	-0.011192296
67	0x3d31eff3	0.043441724
68	0x3a192566	0.00058420596
69	0xbd8351b6	-0.064120695
70	0xbdd3bc5c	-0.10338661
71	0xbc0e6020	-0.00868991
72	0x3ddcca66	0.10780792
73	0x3db5863a	0.08863492
74	0xbe018677	-0.1264895
75	0xbd168014	-0.03674324
76	0x3d04c647	0.032415655
77	0x3cd64908	0.02615787
78	0xbcedc72d	-0.029025638
79	0x3cbdecd1	0.023184212
80	0xbbd0c308	-0.006370906
81	0xbb8e75ed	-0.004347554
82	0x3c99f012	0.018791232
83	0xbce0262d	-0.027361954
84	0xbd8d6341	-0.06903697
85	0xbc3df69b	-0.01159444
86	0xbd81fd35	-0.063471235
87	0x3d8cda24	0.068775445
88	0xbdc00c7f	-0.093773834
89	0xbdf350ec	-0.11880669
90	0x3d9553d5	0.0729138
91	0x3d36139c	0.044452295
92	0x3b01d124	0.0019808495
93	0xbd651c1f	-0.05593502
94	0x3cb56b88	0.022146001
95	0x3dc82548	0.09772736
96	0xbd21e1eb	-0.039522093
97	0xbd650862	-0.055916198
98	0x3dca24e1	0.09870315
99	0x3c86a7b7	0.016437395
100	0xbd5a21ae	-0.053254776
101	0xbd8a2c36	-0.06746714
102	0x3d9d64e2	0.076852575
103	0x3cc389d8	0.02386944
104	0xbd83b506	-0.06431012
105	0xbd485c4d	-0.04891615
106	0xbd3afebb	-0.045653086
107	0xbe02d5a8	-0.12776816
108	0xbd9354a2	-0.07193877
109	0x3d05d9e7	0.03267851
110	0xbd30bc8a	-0.043148555
111	0xbd41bd99	-0.047299955
112	0xbc4ce424	-0.012505565
113	0xbd411fa6	-0.047149323
114	0x3d4222aa	0.04739634
115	0xbd84bce4	-0.064813405
116	0x3c4b24bc	0.012398895
117	0x3d6f064f	0.058355626
118	0xbd653f9b	-0.055968862
119	0xbc31dafe	-0.010855434
120	0xbd1b42a9	-0.03790537
121	0x3d830861	0.063980825
122	0x3dd2dfb7	0.102965765
123	0xbb01613a	-0.001974179
124	0xbc94454d	-0.018099451
125	0xbdc9caf9	-0.09853167
126	0xbd5930f8	-0.053025216
127	0x3ddea33e	0.1087098
128	0x3de51c73	0.11187067
129	0xbdcfa83f	-0.10139512
130	0x3db88c8b	0.090111814
131	0x3ca0372c	0.019557558
132	0xbdc4f804	-0.09617618
133	0x3d961f63	0.07330205
134	0x3d981926	0.07426672
135	0x3abf950e	0.0014616565
136	0x3dd6e85e	0.10493539
137	0x3de55eb2	0.11199702
138	0x3bc2ded8	0.005946975
139	0xbca0617e	-0.019577738
140	0x3dccef7a	0.10006614
141	0x3ddeb437	0.10874217
142	0x3d73e909	0.05954841
143	0x3d8ec2ce	0.0697075
144	0x3dd4baa2	0.1038716
145	0xbd581c68	-0.052761465
146	0x3dae1f37	0.085020475
147	0x3c43a31e	0.011940746
148	0x3cb628be	0.022236224
149	0xbd58a44d	-0.052891064
150	0xbcfee9a0	-0.03111726
151	0x3d86fa20	0.06590676
152	0xbdb2fdad	-0.08739791
153	0xbdb83d41	-0.08996058
154	0xbdec6091	-0.11541856
155	0xbdac3512	-0.0840856
156	0x3ddc3ce2	0.107538
157	0x3cae8102	0.02130175
158	0xbd6e88fd	-0.05823611
159	0xbd04a94f	-0.032388028
160	0xbdc006ae	-0.09376274
161	0x3d4611bd	0.04835676
162	0x3d7d0aa4	0.061777726
163	0xbdd7cda5	-0.105372705
164	0x3d8fff84	0.070311576
165	0x3cbc4513	0.022982156
166	0x3c27dd1c	0.010245588
167	0x3db73885	0.08946327
168	0x3dca111e	0.09866546
169	0xbc8729ac	-0.016499363
170	0x3d7344c2	0.059391744
171	0x3d9ee930	0.07759321
172	0xbdd09469	-0.10184557
173	0xbdd963d0	-0.10614741
174	0xbdb77084	-0.089570075
175	0xbcd3f5e5	-0.025874088
176	0x3cf2fab3	0.029660558
177	0xbdbb2313	-0.09137549
178	0x3dacdd2b	0.08440622
179	0x3dee9cdd	0.11651013
180	0xbd0b9bce	-0.034084134
181	0xbd3fd902	-0.046837814
182	0xbd47400b	-0.04864506
183	0x3de7578a	0.112959936
184	0xbdbbe049	-0.091736384
185	0xbd67916e	-0.056535177
186	0x3d00d447	0.031452443
187	0xbc556d48	-0.013026543
188	0x3c8f7b38	0.01751481
189	0xbd93bf84	-0.07214263
190	0xbdef990e	-0.11699115
191	0x3adffe34	0.0017089308
192	0x3dbc00cd	0.0917984
193	0x3c463529	0.012097635
194	0x3dab64a7	0.08368807
195	0x3d0144db	0.031559806
196	0x3db8d376	0.09024708
197	0x3da01719	0.078169055
198	0x3d719476	0.058979474
199	0x3d8565e5	0.065135755
200	0x3c4c472c	0.012468141
201	0x3df4465c	0.119274825
202	0xbc31ea2c	-0.010859054
203	0xbde7f50f	-0.11326038
204	0xbd149d91	-0.03628308
205	0xbdad4547	-0.08460479
206	0xbd817d52	-0.06322731
207	0xbdd3539e	-0.10318683
208	0xbde0afc9	-0.10971028
209	0xbd843f52	-0.0645739
210	0x3dfa5c61	0.12224651
211	0xbd9fc267	-0.07800751
212	0xbde01ea4	-0.10943344
213	0xbda1ad68	-0.07894403
214	0xbde3ea08	-0.11128622
215	0x3d43d51e	0.047810666
216	0x3d2ec4f4	0.042668298
217	0x3cbf00ac	0.02331575
218	0x3dbe4d5d	0.092920996
219	0x3d6ade98	0.05734119
220	0xbb7cfc59	-0.003860256
221	0x3d3a5550	0.045491517
222	0xbb3a7c64	-0.002845549
223	0x3d1c0899	0.038094137
224	0x3d48223e	0.04886078
225	0x3d06a5aa	0.032872833
226	0x3e04b03e	0.12957856
227	0x3dd172cc	0.10226974
228	0x3c9eab3a	0.019368757
229	0x3cf1c4bf	0.029512761
230	0xbddd0dd1	-0.10793651
231	0xbd929ef6	-0.07159226
232	0xbd609375	-0.054828126
233	0x3dd5a5e9	0.104320355
234	0xbdd82c41	-0.10555316
235	0x3c2d6ea9	0.0105854655
236	0x3da679a0	0.08128667
237	0xbd579d3a	-0.052640177
238	0x3df49c17	0.11943834
239	0x3c995c94	0.018720903
240	0x3b977ab8	0.0046227835
241	0x3c347f58	0.011016689
242	0x3cbb09a3	0.022831744
243	0x3d84f329	0.064916916
244	0xbdcd7f11	-0.100340016
245	0x3d0447a5	0.032294888
246	0x3db5b363	0.08872106
247	0x3d8a0ca5	0.06740693
248	0xbc2c1e52	-0.010505276
249	0xbdef31d9	-0.116794296
250	0x3d105b8e	0.035243563
251	0xbd81b58a	-0.06333454
252	0x3ddda902	0.10823251
253	0x3d4a8d88	0.04945138
254	0xbd3bf064	-0.04588355
255	0x3d8b80ff	0.068117134

lstm.bias_ih_l0 f4 [256]
0	0x3d9eba5f	0.07750391
1	0xbdde4f23	-0.10854938
2	0xbc68f137	-0.014217666
3	0xbbd89d2f	-0.0066105346
4	0xbdc6d021	-0.09707666
5	0x3c841566	0.016123485
6	0xbd909115	-0.07058922
7	0xbdd3336c	-0.10312542
8	0xbda6878a	-0.08131321
9	0xbde4ba7c	-0.111683816
10	0xbdf2a906	-0.11848645
11	0x3d5408b8	0.051766127
12	0xbd15aec2	-0.036543615
13	0xbd94f7e7	-0.07273846
14	0x3deb1c41	0.114799984
15	0xbd9b9fb1	-0.07598818
16	0xbd69935b	-0.057025295
17	0x3e01aa31	0.12662579
18	0x3c82969a	0.015940953
19	0x3dc28bd0	0.09499323
20	0xbd6437da	-0.055717327
21	0x3c96d68a	0.018412847
22	0xbcf4d68c	-0.02988746
23	0xbd74c6e0	-0.059759974
24	0xbd28e40f	-0.04123312
25	0xbddf0f80	-0.10891628
26	0x3d2e3fac	0.04254119
27	0x3dc84472	0.0977868
28	0xbdf17367	-0.117895894
29	0x3d894d5d	0.06704209
30	0xbd8e131d	-0.06937239
31	0x3c4ec466	0.012620067
32	0xbb4b6e50	-0.0031041093
33	0xbd4ffc67	-0.05077782
34	0x3de36a40	0.1110425
35	0x3cf6dee3	0.030135578
36	0x3c2266d4	0.009912211
37	0x3cbe0fa1	0.023200812
38	0xbcf2343b	-0.029565921
39	0xbb3fb9b8	-0.0029254984
40	0xbd12f9b4	-0.035882667
41	0xbdfce84f	-0.12348997
42	0x3db309d6	0.087421104
43	0x3d2bccdf	0.041943427
44	0x3d3c4dda	0.045972683
45	0xbdf5ae14	-0.119960934
46	0xbdbe0d91	-0.09279931
47	0x3df04b51	0.117331155
48	0x3dc80404	0.09766391
49	0xbdecebb9	-0.11568398
50	0xbdb282b0	-0.08716333
51	0x3be08875	0.0068522044
52	0x3d2b4289	0.0418115
53	0xbd27a309	-0.040926967
54	0x3dd6556e	0.10465513
55	0xbdc88b42	-0.09792186
56	0xbd6fbb1a	-0.058528043
57	0xbdad8c6a	-0.084740475
58	0xbd4818bb	-0.04885171
59	0x3d91d8ae	0.071214065
60	0x3db3b96a	0.08775599
61	0x3d0f3248	0.03496006
62	0x3dcfed29	0.101526566
63	0xbd57e36a	-0.052707113
64	0xbd967a21	-0.07347513
65	0x3d3928be	0.04520487
66	0xbd785dc9	-0.060636315
67	0xbdfe1f5a	-0.124083236
68	0x3c2eab43	0.010660949
69	0xbddbbf0c	-0.10729799
70	0x3de3a8bf	0.1111617
71	0x3d9d70ea	0.07687552
72	0xbdae45c6	-0.08509402
73	0x3cc682a0	0.024232209
74	0x3d85abd6	0.06526916
75	0x3da00b23	0.07814624
76	0x3dbb903d	0.09158371
77	0xbdd7b487	-0.1053248
78	0xbdc12348	-0.094305575
79	0xbdaf4b0a	-0.085592344
80	0xbd78db10	-0.06075579
81	0xbc2d3aca	-0.010573098
82	0xbdc6a5dd	-0.09699605
83	0xbde0a8aa	-0.1096967
84	0x3cbbd607	0.022929205
85	0xbb8e5ab5	-0.004344309
86	0xbdee8fe5	-0.116485395
87	0x3dfb1c77	0.122612886
88	0x3dbb6119	0.09149379
89	0xbd9f817f	-0.07788371
90	0xbd9a4fe9	-0.07534773
91	0x3dc2dc14	0.09514633
92	0x3d1dc24e	0.03851538
93	0x3db7ee2b	0.08980974
94	0x3d82018d	0.06347952
95	0xbd44b2c5	-0.04802205
96	0xbded3c05	-0.115837134
97	0x3c89e520	0.016832888
98	0xbcfb45e8	-0.030672982
99	0x3df25516	0.11832635
100	0xbd006274	-0.031343892
101	0x3ca915f2	0.020640347
102	0x3d653bb1	0.05596513
103	0xbcc0eb10	-0.023549587
104	0x3df88abd	0.12135837
105	0xbcedcec2	-0.029029254
106	0x3cc02da8	0.02345927
107	0x3d859c00	0.06523895
108	0x3dde62f7	0.1085872
109	0x3d3f8a88	0.046762973
110	0xba6ec58d	-0.0009108417
111	0x3d5483a4	0.051883355
112	0xbd7dd3cc	-0.061969563
113	0xbdf3db7e	-0.11907099
114	0xbd98a513	-0.074533604
115	0xbd9df9dc	-0.077136725
116	0x3d6c0348	0.057620317
117	0x3dd127a1	0.10212637
118	0xbdb29f8e	-0.08721839
119	0xbd8f9e01	-0.07012559
120	0xbdca5fee	-0.098815784
121	0x3d90d08e	0.07071029
122	0x3dc2b592	0.09507288
123	0xbd41f86c	-0.047356054
124	0x3d09aa37	0.033609595
125	0xbda03793	-0.078231
126	0x3d3b9368	0.045794874
127	0xbca5d9c9	-0.02024545
128	0x3dc062bb	0.09393831
129	0xbcb560f3	-0.022140956
130	0xbdfbce9e	-0.122952685
131	0xbdbff7bc	-0.093734235
132	0x3d1f9cb7	0.038967814
133	0x3d3f44e4	0.04669656
134	0xbdbf55b4	-0.093425184
135	0xbdf99031	-0.121857055
136	0xbce3e665	-0.027819822
137	0x3dd3945d	0.103310324
138	0x3b846f2e	0.004041574
139	0x3db8fc78	0.090325296
140	0x3cfb8bbe	0.030706283
141	0xbd28e2ab	-0.041231792
142	0xbda0c43f	-0.07849931
143	0x3dbf55a3	0.09342506
144	0xbd9f6b2d	-0.07784114
145	0xbdd509f9	-0.10402293
146	0xbd549fc7	-0.051910188
147	0x3d9819d3	0.074268006
148	0x3dfc1afc	0.12309834
149	0xbdf078ca	-0.11741789
150	0xbc02961e	-0.007970361
151	0xbcb2bcf8	-0.021818623
152	0x3dd79977	0.10527318
153	0x3dc97cfe	0.098382935
154	0xbd8bc2bc	-0.06824252
155	0xbd9926ea	-0.074781254
156	0x3dd4d02f	0.1039127
157	0xbd47e5a5	-0.04880299
158	0x3b8ee0a3	0.004360275
159	0xbddb0a0a	-0.10695274
160	0x3d782be1	0.06058872
161	0x3d46964e	0.048483185
162	0xbc6ae41c	-0.014336612
163	0xbd996375	-0.07489673
164	0xbcb22b9d	-0.021749312
165	0xbe024a86	-0.12723741
166	0x3dc7bab7	0.0975241
167	0x3d779cb5	0.06045218
168	0x3e040569	0.12892689
169	0xbadeb06f	-0.0016989837
170	0x3c8f6bc7	0.017507447
171	0xbde1a27b	-0.11017319
172	0xbd9fd15e	-0.078036055
173	0xbda0fb85	-0.078604735
174	0x3d63e7c9	0.05564097
175	0xbde62d3f	-0.11239099
176	0xbda94be5	-0.08266429
177	0x3d9bba01	0.07603837
178	0xbc47e392	-0.012200253
179	0x3d3d42c5	0.046206255
180	0x3d4a48e4	0.04938592
181	0xbd8280e9	-0.06372244
182	0x3d2895bf	0.041158434
183	0x3de8f5a6	0.11374979
184	0xbd0a990f	-0.033837374
185	0xbd3ef889	-0.04662374
186	0xbd83ecc8	-0.06441647
187	0x3dbc0c92	0.09182085
188	0x3dd6cc48	0.10488182
189	0xbc09159a	-0.008366967
190	0x3d1ff963	0.039056193
191	0x3dee8c3c	0.11647841
192	0xbde185f7	-0.1101188
193	0xbcba0f0b	-0.022712251
194	0xbcc5863e	-0.024111863
195	0xbd611118	-0.054947942
196	0xbd9b99b4	-0.07597676
197	0xbd3a2c59	-0.04545245
198	0xbd907710	-0.07053959
199	0x3dffca3a	0.124897435
200	0xbdd83480	-0.105568886
201	0xbdac3627	-0.08408766
202	0xbd834f47	-0.06411605
203	0xbd4797f2	-0.04872889
204	0x3ca89052	0.02057663
205	0xbdc88346	-0.097906634
206	0x3db141b0	0.08655107
207	0x39bd5928	0.00036115316
208	0xbcceda6d	-0.025250638
209	0x3d1b135f	0.03786027
210	0x3dac4f73	0.08413591
211	0x3d4b55a3	0.049642216
212	0x3d96cca8	0.07363254
213	0xbdb47de3	-0.088130735
214	0xbcdbfb31	-0.026853176
215	0x3d71f87d	0.059074868
216	0x3da8be0b	0.08239373
217	0x3cae0b2b	0.02124556
218	0xbd4cbbf9	-0.049983952
219	0xbc4be751	-0.012445287
220	0xbc0af50a	-0.008481273
221	0xbdbe6ca4	-0.09298065
222	0xbda56419	-0.08075733
223	0x3c651fd7	0.013984642
224	0x3d2094b8	0.03920433
225	0xbe03b669	-0.12862553
226	0x3daa951c	0.083292216
227	0x3dbe0ebd	0.09280155
228	0x3c89ff52	0.016845379
229	0xbd9e85d6	-0.07740371
230	0x3df9ba5c	0.12193748
231	0x3de37a72	0.11107339
232	0x3cf43954	0.029812492
233	0x3c7a7e6b	0.015288929
234	0x3cafc2ba	0.021455158
235	0x3dcc25c3	0.0996814
236	0x3e0297ef	0.1275327
237	0xbdb15942	-0.08659603
238	0xbd9eccc1	-0.077538975
239	0x3cc02cfd	0.023458952
240	0xbd350964	-0.04419841
241	0x3c673bee	0.014113409
242	0xbd1ed6c8	-0.03877905
243	0x3ce81e37	0.02833472
244	0xbc542a62	-0.012949558
245	0xb83a3120	-4.4391607e-05
246	0x3c9e2e7e	0.019309279
247	0xbdf2de6b	-0.11858829
248	0x3d33ba46	0.043878816
249	0x3d130bf6	0.03590008
250	0xbdd86ecb	-0.10568007
251	0xbdb91aee	-0.090383396
252	0xbdac3418	-0.084083736
253	0xbd6ea0e7	-0.058258917
254	0x3dcf5fef	0.1012572
255	0x3d9d6830	0.07685888

lstm.bias_hh_l0 f4 [256]
0	0xbd2a12fd	-0.041522015
1	0x3c55eef3	0.013057458
2	0x3c62fe17	0.013854525
3	0xbc8655bb	-0.016398301
4	0xbbaada86	-0.0052140383
5	0xbc71e754	-0.014764626
6	0x3db469c9	0.088092394
7	0xbd44b06d	-0.048019815
8	0x3d87fdbe	0.06640194
9	0xbcf72a01	-0.030171396
10	0xbd6f9e9b	-0.058500867
11	0x3ce3801e	0.027771052
12	0xbdcf390b	-0.10118302
13	0x3d43cfa4	0.047805443
14	0xbddf5391	-0.10904611
15	0xbbadac18	-0.005300056
16	0xbc06026d	-0.008179289
17	0x3d716828	0.05893722
18	0xbcd9f0e6	-0.026604127
19	0x3d3e58e0	0.046471477
20	0x3c9cb1a9	0.019127684
21	0xbcb3df3e	-0.021957036
22	0xbdeab5ca	-0.11460455
23	0xbcfed528	-0.0311075
24	0xbc92ca1e	-0.017918643
25	0x3dcb8bba	0.0993876
26	0x3d0ea1fb	0.034822445
27	0x3db215f6	0.08695595
28	0x3db3d68d	0.08781157
29	0x3d40781f	0.046989556
30	0xbce13aa4	-0.027493782
31	0x3cc94903	0.024570948
32	0xbdc4d527	-0.09610968
33	0xbdb8cf03	-0.09023859
34	0x3c2a2a26	0.0103860255
35	0x3dc732ac	0.09726462
36	0x3acf0aa5	0.0015796019
37	0xbce16a9f	-0.027516661
38	0xbd4a0922	-0.049325116
39	0xbddde5c5	-0.10834841
40	0x3d89ad4f	0.06722509
41	0xbc8738ae	-0.01650652
42	0x3bde0541	0.0067755287
43	0x3d566057	0.05233797
44	0xbd82bb35	-0.06383363
45	0xbdf22164	-0.11822775
46	0xbc6fd14f	-0.014637305
47	0xbd5bfd59	-0.053708408
48	0x3cfa1742	0.030528668
49	0x3ce1e4b9	0.027574884
50	0x3d116ba6	0.035503052
51	0x3da857f9	0.082199045
52	0xbd33aecb	-0.043867867
53	0x3d87255b	0.06598922
54	0x3d4353d2	0.04768736
55	0xbd859e28	-0.065243065
56	0xbc4f0a7b	-0.012636776
57	0xbd2a4ebc	-0.041578993
58	0xbdb043f9	-0.08606715
59	0xbdc26cca	-0.09493406
60	0xbd878790	-0.06617653
61	0xbdf07e61	-0.11742855
62	0x3cc2657d	0.023730034
63	0x3d46a436	0.048496448
64	0x3bf3178a	0.0074185776
65	0xbd7a4838	-0.06110403
66	0x3db6b2bc	0.089208096
67	0xbd9ef5a0	-0.07761693
68	0x3c8f675a	0.017505337
69	0x3c2dc10f	0.010605111
70	0x3d50064e	0.050787263
71	0x3ca94182	0.02066112
72	0x3d542c5c	0.051800117
73	0xbda1f9e8	-0.07908994
74	0x3de716da	0.112836555
75	0xbd84d591	-0.06486047
76	0x3d16ff84	0.036864772
77	0xbe02ff5d	-0.12792726
78	0xbd68ef3d	-0.05686878
79	0x3cf7757f	0.030207394
80	0xbd95ec09	-0.07320411
81	0xbda54f9d	-0.08071826
82	0x3d61aad8	0.05509457
83	0xbd82cc3a	-0.063866094
84	0x3c0b64af	0.008507892
85	0x3dfeddf1	0.12444676
86	0xbca824da	-0.020525385
87	0x3dc41db5	0.09575979
88	0x3db4bb0d	0.088247396
89	0x3b8b11bb	0.004244057
90	0xbd57bef2	-0.052672334
91	0x3d4b6701	0.04965878
92	0xbdaab326	-0.08334951
93	0x3dc5deb9	0.096616216
94	0x3d876217	0.06610506
95	0x3bdf7396	0.006819199
96	0x3dba43cd	0.09094963
97	0x3d83ed99	0.064418025
98	0x3ddc8f01	0.10769463
99	0x3cc296a1	0.023753466
100	0xbda9b6d2	-0.08286823
101	0xbd7d3fa5	-0.061828274
102	0x3b9cc94e	0.0047847396
103	0x3d4d9570	0.050191343
104	0xbcf7d2b0	-0.03025183
105	0xbda62173	-0.08111849
106	0x3ba4293f	0.0050097997
107	0x3ddc9938	0.10771412
108	0x3d098864	0.033577338
109	0x3b906d22	0.004407541
110	0xbc01cb09	-0.0079219425
111	0x3d5e1488	0.0542188
112	0xbbe0599b	-0.0068466193
113	0xbd5faf7e	-0.05461072
114	0x3d7dee6a	0.061994947
115	0x3dc8e524	0.0980933
116	0xbddf1565	-0.108927526
117	0xbc6a0dee	-0.014285548
118	0x3d333096	0.043747507
119	0x3bc73151	0.006078877
120	0xbc374093	-0.011184829
121	0xbd59795b	-0.05309425
122	0x3d780a09	0.060556445
123	0xbd6430b0	-0.055710495
124	0x3d77cc5e	0.060497634
125	0x3d20b7a9	0.039237652
126	0xbdbbe1fe	-0.09173964
127	0x3da0b5fa	0.07847209
128	0xbd4cde30	-0.050016582
129	0xbdf07908	-0.11741835
130	0xbd01eaf4	-0.03171821
131	0xbda0b442	-0.078468814
132	0xbc0f0ec2	-0.008731546
133	0x3c00d7ba	0.007863933
134	0x3df53a8a	0.11974056
135	0x3c9a6ab7	0.018849714
136	0x3d91f20e	0.071262464
137	0x3dcfe3df	0.10150885
138	0xbbbb7df2	-0.005721801
139	0x3e014799	0.12624969
140	0xbd81f4f6	-0.06345551
141	0xbb5ddd6c	-0.0033853902
142	0x3d983df5	0.07433692
143	0x3ddcf569	0.10788996
144	0x3dd2c8ad	0.10292182
145	0x3d80b5f9	0.062847085
146	0x3caa9aa3	0.02082569
147	0xbdd471a5	-0.103732385
148	0x3ccf7501	0.025324346
149	0x3b62c024	0.0034599388
150	0x3dd20fe1	0.10256935
151	0xbd6e301f	-0.05815136
152	0xbc848273	-0.016175484
153	0x3d17328d	0.036913443
154	0xbd5a0e3f	-0.053236242
155	0x3dd23b04	0.102651626
156	0x3d9061c1	0.07049895
157	0xbcc9db5c	-0.024640732
158	0x3cde0721	0.027103009
159	0xbdc6b8ce	-0.097032174
160	0xbd6a0f79	-0.057143662
161	0x3d484a92	0.04889924
162	0xbc17ac6a	-0.009257415
163	0x3c0d203e	0.008613644
164	0xbde7bd3b	-0.1131539
165	0x3ccb5c8c	0.024824403
166	0xbe044d11	-0.12920024
167	0x3de24777	0.11048787
168	0xbca78391	-0.020448478
169	0x3cd9e771	0.026599618
170	0x3d1ac43b	0.037784796
171	0x3d0fa434	0.035068706
172	0xbd874938	-0.06605762
173	0x3d211872	0.039329953
174	0x3cecb8da	0.028896738
175	0x3cf34487	0.029695762
176	0x3a3f8348	0.0007305634
177	0xbce3a79d	-0.027789885
178	0xbd8ff98d	-0.0703002
179	0xbd52268b	-0.05130629
180	0x3c69fd26	0.014281547
181	0x3db75f53	0.089537285
182	0xbdd2ac18	-0.102867305
183	0x3d56fbfb	0.0524864
184	0xbdfc0f04	-0.123075515
185	0x3b1b8eb6	0.0023736185
186	0x3d28437b	0.04107998
187	0x3d345a1c	0.044031247
188	0x3d8ec586	0.06971268
189	0x3ddf8114	0.109132916
190	0x3ddf1ad3	0.10893788
191	0xbde554b6	-0.11197798
192	0xbd0193ec	-0.03163521
193	0xbdeee6dd	-0.116651274
194	0x3dd812da	0.10550471
195	0x3dd16f28	0.102262795
196	0x3bad1b1f	0.005282774
197	0x3d74279b	0.059608083
198	0x3d6703e4	0.056400195
199	0xbddcba28	-0.10777694
200	0xbd5e39cb	-0.054254334
201	0xbcc5585f	-0.02408999
202	0xbd8f7e47	-0.07006507
203	0x3c81ca75	0.01584361
204	0x3d4cc115	0.049988825
205	0xbd959098	-0.0730297
206	0xbdb1e24a	-0.08685739
207	0xbc7a4b87	-0.015276796
208	0x3c8655b3	0.016398286
209	0x3db0d676	0.08634655
210	0x3db62b73	0.08895006
211	0xbd8adc05	-0.06780247
212	0x3d6c934e	0.05775767
213	0x3dc21775	0.0947713
214	0xbda61e6a	-0.0811127
215	0xbcad3b3b	-0.021146407
216	0x3cac8255	0.02105824
217	0xbd04daab	-0.0324351
218	0xbdb2780c	-0.087143034
219	0x3d9f2d18	0.07772273
220	0xbd9103a0	-0.070807695
221	0xbda966d4	-0.08271566
222	0xbd3ec286	-0.04657223
223	0xbb7e7f28	-0.0038833115
224	0x3d73be5c	0.059507713
225	0xbd85e0b5	-0.06537
226	0xbdd72232	-0.10504569
227	0x3cb2858a	0.021792192
228	0xbd72791e	-0.059197538
229	0xbde72746	-0.11286788
230	0x3db77138	0.08957142
231	0x3d595465	0.053059
232	0xbce4f154	-0.027947105
233	0x3ae3d9d6	0.0017383646
234	0x3ddb5260	0.10709071
235	0xbcd1b9f6	-0.025601368
236	0x3dfaf791	0.12254251
237	0x3cbd0215	0.023072282
238	0xbdac8af1	-0.084249385
239	0xbda7bcd6	-0.081903145
240	0xbd816a7d	-0.06319139
241	0xbd79210f	-0.060822543
242	0xbc837647	-0.01604761
243	0xbdcab17a	-0.09897132
244	0xbd1e1f30	-0.03860396
245	0x3e0029ee	0.12515995
246	0x3de48ced	0.11159692
247	0x3cf9fbff	0.030515669
248	0x3de8e885	0.113724746
249	0xbd094a3a	-0.033518054
250	0x3d8f5807	0.06999212
251	0x3df4e252	0.1195723
252	0xbd1764f9	-0.03696153
253	0x3d8f5073	0.06997766
254	0x3d6cc81f	0.057808038
255	0x3dfe7be6	0.124259755

fc.weight f4 [3, 64]
0	0xbd4c08ba	-0.04981301
1	0xbdccecbd	-0.10006092
2	0xbd100c25	-0.035167832
3	0x3d9f1e1f	0.07769417
4	0x3dd4f725	0.103987016
5	0xbdd89486	-0.105752036
6	0xbdbc3b7e	-0.09191035
7	0xbd91f714	-0.071272045
8	0xbdfc1826	-0.123092934
9	0xbde3f63d	-0.111309506
10	0xbb8746b5	-0.004128302
11	0xbae04db7	-0.0017113005
12	0xbbad9451	-0.0052972217
13	0xbca21052	-0.019783173
14	0x3ce97511	0.028498204
15	0x3de25109	0.110506125
16	0xbd9910a9	-0.07473881
17	0xbdb508fe	-0.08839606
18	0x3d0067d6	0.031349026
19	0xbd98d79e	-0.07463001
20	0x3882f070	6.243668e-05
21	0xbd700254	-0.05859597
22	0x3c18e180	0.009331107
23	0xbdf67f5f	-0.12036013
24	0x3d613f1f	0.054991838
25	0x3d70e522	0.058812268
26	0x3cd3e38f	0.025865344
27	0xbd802aff	-0.06258201
28	0xbd3be657	-0.045873966
29	0x3ddbdb8b	0.10735234
30	0x3cd8321c	0.026391082
31	0xbd78e9f4	-0.06076999
32	0xbd8f62ac	-0.07001242
33	0x3daf7638	0.0856747
34	0xbd84ffe3	-0.06494119
35	0x3ddd3bbf	0.10802411
36	0xbe041d8c	-0.12901896
37	0xbdd9ee4e	-0.10641156
38	0xbdeaaea3	-0.114590906
39	0xbdf08873	-0.117447756
40	0x3c796c6a	0.015223602
41	0x3dbb8bb7	0.09157508
42	0xbd37d399	-0.04487953
43	0xbbf21288	-0.007387463
44	0xbd1f9842	-0.038963564
45	0xbdcf8b53	-0.10133996
46	0x3c3176aa	0.010831514
47	0xbd6356a2	-0.05550254
48	0x3d355aaa	0.044275917
49	0x3c090587	0.008363134
50	0x3cc0e655	0.02354733
51	0x3d7717df	0.0603255
52	0x3d7b783f	0.061393972
53	0x3da81777	0.082076006
54	0xbd841405	-0.06449131
55	0xbbe7f8be	-0.007079213
56	0xbda59abe	-0.08086155
57	0x3df15c3a	0.11785169
58	0xbd11302c	-0.03544633
59	0x3d869399	0.06571121
60	0x3c8ec9b5	0.017430166
61	0xbdee4b6d	-0.1163548
62	0xbdf47029	-0.11935455
63	0xbdfc2184	-0.1231108
64	0x3dc0fa68	0.09422761
65	0xbd7560c1	-0.059906725
66	0xbd972b0d	-0.07381258
67	0xbd39b9ee	-0.045343332
68	0xbc903ca4	-0.01760704
69	0xbdc18025	-0.0944827
70	0xbda37a00	-0.07982254
71	0xbde4a524	-0.111643106
72	0x3cc71454	0.024301685
73	0xbc1e5ea5	-0.00966612
74	0x3d85dc4f	0.06536161
75	0x3d8edba9	0.069754906
76	0x3dd348bf	0.103166096
77	0x3d2af116	0.041733824
78	0xbd820a36	-0.06349604
79	0xbc977e71	-0.01849291
80	0xbd9e4d21	-0.07729555
81	0x3d7b352a	0.061329998
82	0xbcfca111	-0.030838521
83	0xbd8cef79	-0.06881613
84	0x3dc8fa07	0.09813314
85	0xbccc4adf	-0.024938045
86	0xbd86ef00	-0.065885544
87	0xbd8e31aa	-0.069430664
88	0xbdc0b5d6	-0.094096825
89	0x3d09502f	0.033523735
90	0xbdf610d7	-0.12014931
91	0xbdacfafd	-0.0844631
92	0xbdd37725	-0.103254594
93	0xbd85cd7b	-0.06533333
94	0x3da647db	0.08119174
95	0x3d95b6f1	0.07310284
96	0x3c9ecd8a	0.019385118
97	0xbdae51a3	-0.08511665
98	0x3db813cd	0.08988152
99	0x3d937d5c	0.07201645
100	0x3dd9aaa9	0.10628254
101	0xbdaedd13	-0.0853826
102	0xbcbe4a20	-0.023228705
103	0x3d862558	0.065500915
104	0x3ccedfc3	0.025253182
105	0x3d2efb5e	0.04272019
106	0x3d60c34a	0.054873742
107	0x3d728c52	0.05921585
108	0x3c0d8588	0.008637793
109	0x3c52bde9	0.012862661
110	0xbdcdab8f	-0.10042488
111	0xbde6ec46	-0.11275534
112	0xbd8bf64f	-0.06834089
113	0x3dd58be1	0.104270704
114	0x3d4d8a6a	0.05018083
115	0xbce31b2e	-0.027722921
116	0x3db59a22	0.08867289
117	0x3e045f2b	0.12926929
118	0x3de4f071	0.11178673
119	0x3b2a7fe6	0.0026016175
120	0xbd70d559	-0.058797214
121	0x3de965db	0.113963805
122	0x3c10428c	0.0088049285
123	0x3ba5817a	0.005050835
124	0x3d955470	0.07291496
125	0xbda65bdf	-0.08122992
126	0x3ce7c70e	0.028293159
127	0xbdb5ae60	-0.0887115
128	0xbd0bff2a	-0.03417889
129	0xbd7f5cea	-0.06234447
130	0x3daa2ea6	0.08309679
131	0x3d261c79	0.040554497
132	0x3de7204a	0.112854555
133	0xbd9827a9	-0.074294396
134	0x3ddfc176	0.109255716
135	0xbc932ac8	-0.017964736
136	0xbd5e7e6d	-0.054319788
137	0x3d8e6dc9	0.069545336
138	0xbd2a841e	-0.041629903
139	0xbcd20cfc	-0.025640957
140	0xbd9466c0	-0.072461605
141	0xbd53645e	-0.05160939
142	0xbdd8f6d2	-0.10593952
143	0x3d7f11d3	0.062272858
144	0x3dcf0f56	0.10110347
145	0x3dd8bfe9	0.10583479
146	0x3ddcf6d8	0.10789269
147	0xbda1bf42	-0.07897808
148	0x3ad57cc8	0.0016287798
149	0xbcb0539e	-0.021524247
150	0xbe044428	-0.12916625
151	0x3bdb385c	0.006690068
152	0xbdb247cb	-0.087051
153	0xbc7d31ae	-0.015453739
154	0x3df8db16	0.12151162
155	0xbdeadd95	-0.11468045
156	0xbdd1e1f8	-0.10248178
157	0x3ce9e8fd	0.02855348
158	0x3b90a248	0.0044138767
159	0x3d10cc46	0.03535106
160	0x3d9f9639	0.077923246
161	0xbd817522	-0.063211694
162	0x3d327c12	0.043575354
163	0xbd180b56	-0.037120186
164	0xbdaab16c	-0.08334622
165	0xbd46b90f	-0.04851633
166	0xbb972006	-0.004611972
167	0x3d0b64ac	0.034031555
168	0xbde1062e	-0.10987507
169	0x3d22ca96	0.039743982
170	0x3d03d4ea	0.032185473
171	0xbcacc8ea	-0.021091897
172	0xbd0da7ca	-0.034583844
173	0xbca9e2c9	-0.020738022
174	0xbd2ae2d4	-0.041720226
175	0xbda36569	-0.07978327
176	0xbd7ddce4	-0.061978236
177	0x3d911fb2	0.070861235
178	0x3bf491f6	0.007463689
179	0x3df18c22	0.11794306
180	0xbd756ff4	-0.05992122
181	0x3ceccf0f	0.028907327
182	0x3cf9d3bc	0.03049647
183	0xbc28010f	-0.010254159
184	0xbd7f25c8	-0.06229189
185	0x3db89246	0.090122744
186	0x3d6ba560	0.05753076
187	0x3a30545c	0.0006726438
188	0xbd86ccd7	-0.06582039
189	0xbd4be171	-0.049775545
190	0x3da1a1bc	0.078921765
191	0x3de01692	0.10941805

fc.bias f4 [3]
0	0xbc2d8a58	-0.010592066
1	0x3d7dd409	0.06196979
2	0x3dc879b2	0.097888365
